num_classes 2
Model: 
PointNet(
  (sa1_module): SAModule(
    (conv): PointConv(local_nn=Sequential(
      (0): Sequential(
        (0): Linear(in_features=9, out_features=32, bias=True)
        (1): ReLU()
        (2): BatchNorm1d(32, eps=1e-05, momentum=0.1, affine=True, track_running_stats=True)
      )
      (1): Sequential(
        (0): Linear(in_features=32, out_features=32, bias=True)
        (1): ReLU()
        (2): BatchNorm1d(32, eps=1e-05, momentum=0.1, affine=True, track_running_stats=True)
      )
      (2): Sequential(
        (0): Linear(in_features=32, out_features=64, bias=True)
        (1): ReLU()
        (2): BatchNorm1d(64, eps=1e-05, momentum=0.1, affine=True, track_running_stats=True)
      )
    ), global_nn=None)
  )
  (sa2_module): SAModule(
    (conv): PointConv(local_nn=Sequential(
      (0): Sequential(
        (0): Linear(in_features=67, out_features=64, bias=True)
        (1): ReLU()
        (2): BatchNorm1d(64, eps=1e-05, momentum=0.1, affine=True, track_running_stats=True)
      )
      (1): Sequential(
        (0): Linear(in_features=64, out_features=64, bias=True)
        (1): ReLU()
        (2): BatchNorm1d(64, eps=1e-05, momentum=0.1, affine=True, track_running_stats=True)
      )
      (2): Sequential(
        (0): Linear(in_features=64, out_features=128, bias=True)
        (1): ReLU()
        (2): BatchNorm1d(128, eps=1e-05, momentum=0.1, affine=True, track_running_stats=True)
      )
    ), global_nn=None)
  )
  (sa3_module): SAModule(
    (conv): PointConv(local_nn=Sequential(
      (0): Sequential(
        (0): Linear(in_features=131, out_features=128, bias=True)
        (1): ReLU()
        (2): BatchNorm1d(128, eps=1e-05, momentum=0.1, affine=True, track_running_stats=True)
      )
      (1): Sequential(
        (0): Linear(in_features=128, out_features=128, bias=True)
        (1): ReLU()
        (2): BatchNorm1d(128, eps=1e-05, momentum=0.1, affine=True, track_running_stats=True)
      )
      (2): Sequential(
        (0): Linear(in_features=128, out_features=256, bias=True)
        (1): ReLU()
        (2): BatchNorm1d(256, eps=1e-05, momentum=0.1, affine=True, track_running_stats=True)
      )
    ), global_nn=None)
  )
  (sa4_module): GlobalSAModule(
    (nn): Sequential(
      (0): Sequential(
        (0): Linear(in_features=259, out_features=256, bias=True)
        (1): ReLU()
        (2): BatchNorm1d(256, eps=1e-05, momentum=0.1, affine=True, track_running_stats=True)
      )
      (1): Sequential(
        (0): Linear(in_features=256, out_features=512, bias=True)
        (1): ReLU()
        (2): BatchNorm1d(512, eps=1e-05, momentum=0.1, affine=True, track_running_stats=True)
      )
      (2): Sequential(
        (0): Linear(in_features=512, out_features=1024, bias=True)
        (1): ReLU()
        (2): BatchNorm1d(1024, eps=1e-05, momentum=0.1, affine=True, track_running_stats=True)
      )
    )
  )
  (fp3_module): FPModule(
    (nn): Sequential(
      (0): Sequential(
        (0): Linear(in_features=1280, out_features=256, bias=True)
        (1): ReLU()
        (2): BatchNorm1d(256, eps=1e-05, momentum=0.1, affine=True, track_running_stats=True)
      )
      (1): Sequential(
        (0): Linear(in_features=256, out_features=256, bias=True)
        (1): ReLU()
        (2): BatchNorm1d(256, eps=1e-05, momentum=0.1, affine=True, track_running_stats=True)
      )
    )
  )
  (fp2_module): FPModule(
    (nn): Sequential(
      (0): Sequential(
        (0): Linear(in_features=384, out_features=256, bias=True)
        (1): ReLU()
        (2): BatchNorm1d(256, eps=1e-05, momentum=0.1, affine=True, track_running_stats=True)
      )
      (1): Sequential(
        (0): Linear(in_features=256, out_features=128, bias=True)
        (1): ReLU()
        (2): BatchNorm1d(128, eps=1e-05, momentum=0.1, affine=True, track_running_stats=True)
      )
    )
  )
  (fp1_module): FPModule(
    (nn): Sequential(
      (0): Sequential(
        (0): Linear(in_features=192, out_features=128, bias=True)
        (1): ReLU()
        (2): BatchNorm1d(128, eps=1e-05, momentum=0.1, affine=True, track_running_stats=True)
      )
      (1): Sequential(
        (0): Linear(in_features=128, out_features=64, bias=True)
        (1): ReLU()
        (2): BatchNorm1d(64, eps=1e-05, momentum=0.1, affine=True, track_running_stats=True)
      )
    )
  )
  (fp0_module): FPModule(
    (nn): Sequential(
      (0): Sequential(
        (0): Linear(in_features=70, out_features=64, bias=True)
        (1): ReLU()
        (2): BatchNorm1d(64, eps=1e-05, momentum=0.1, affine=True, track_running_stats=True)
      )
      (1): Sequential(
        (0): Linear(in_features=64, out_features=64, bias=True)
        (1): ReLU()
        (2): BatchNorm1d(64, eps=1e-05, momentum=0.1, affine=True, track_running_stats=True)
      )
      (2): Sequential(
        (0): Linear(in_features=64, out_features=64, bias=True)
        (1): ReLU()
        (2): BatchNorm1d(64, eps=1e-05, momentum=0.1, affine=True, track_running_stats=True)
      )
    )
  )
  (lin1): Linear(in_features=64, out_features=64, bias=True)
  (lin2): Linear(in_features=64, out_features=64, bias=True)
  (lin3): Linear(in_features=64, out_features=2, bias=True)
)
Parameters: 1397602
Training with 1600 samples
Validating with 200 samples
scor 182230 stru 182230 sfls 3879268 stp 182230 stn 0 sfp 3879268 sfn 0 stot 4061498
Epoch: 00, Training Loss: 0.4203
               Validation Loss: 1.1700, Eff.: 1.0000, FalsePos: 1.0000, FalseNeg: 0.0000, Purity: 0.0449
New best model saved to: /home/scratch/sitonga/hgcal_ldrd/notebooks/PointnetPreprocessing/PointNet_1397602_26d89c5565_sitonga.eff0.9999999999945124.purity0.04486768182575866.20190808.164925.0.best.pth
…
